deeppack_CNN_mask_anotherpool_model2.pt (torch, 189719 bytes, 11 tensors)

0.weight f4 [32, 1, 5, 5]
000000 c1 73 4f be 65 49 33 bd b2 04 02 3e de 72 55 3e
       -0.20259 -0.043771166 0.12697104 0.208446
000010 27 3c c8 3d b4 a6 95 3c e4 37 04 be 0a af f2 bd
       0.09777098 0.018267967 -0.12911946 -0.11849792
000020 c5 47 20 bd 94 b1 4d 3e c0 60 00 be d6 5f ab bd
       -0.039130945 0.20087272 -0.12536907 -0.08367889
000030 89 95 d6 3d e9 1e 55 3e 56 4f 98 bc fe ac 05 bd
       0.1047774 0.20812573 -0.018592518 -0.03263568
000040 3e f6 8a 3d e7 6d 7a bd e9 c8 1e 3e ac 97 f5 bb
       0.06785248 -0.061139967 0.15506329 -0.0074948873
000050 eb ed eb bd 8d de 31 3e 09 f3 bb 3c 53 67 76 3e
       -0.115199886 0.17370053 0.022943037 0.24062853
000060 d4 a9 94 bd 4a 85 a5 3d e5 8d 77 be 42 06 01 be
       -0.07258955 0.080820635 -0.24175222 -0.12600043
000070 6a 09 20 be 0d be 2e bd d7 3e 86 be 38 cd d3 bd
       -0.15628591 -0.042661715 -0.26219818 -0.10341877
000080 fa f3 f7 3d 89 fc 4e 3e e3 9f 3a bd 88 3a 6b be
       0.12107082 0.20213522 -0.045562636 -0.22971547
000090 66 22 e8 bc 2b fe 26 be 4a d5 28 be 11 f4 fc 3d
       -0.028336715 -0.16307895 -0.16487613 0.123512395
0000a0 c0 6f 96 bc 66 72 78 bd e1 60 e4 3d 03 a0 a1 3d
       -0.018363833 -0.060655974 0.11151291 0.07891848
0000b0 a4 c4 3f 3e 8e 32 e9 3d 98 6f d4 3d ff 05 cb 3d
       0.18727356 0.11386596 0.10372847 0.09913253
0000c0 94 6f 67 3e 82 11 b2 39 c0 ad f4 3d d1 95 1f be
       0.22601157 0.0003396385 0.11947203 -0.15584494
0000d0 ee 13 2d 3d 44 84 32 3d 8e 89 a4 3d 03 ff 3a 3e
       0.042255335 0.04358317 0.08034049 0.18261342
0000e0 39 f0 0f 3e df 83 62 3e e4 3e 32 bd 64 7c d4 bd
       0.14056481 0.22120617 -0.04351701 -0.10375288
0000f0 f5 ae 1b bd d5 6e 95 3d e5 28 26 be 0e 98 5b bb
       -0.03800865 0.0729653 -0.16226538 -0.003350738
000100 45 90 e3 3d 9a 13 9a 3d 90 4d b3 3c 73 18 bd bd
       0.111115016 0.0752327 0.02188757 -0.09233179
000110 02 af 8d bd fc 7e 06 3e 28 f3 85 3c fc 30 8a bd
       -0.06918146 0.13134378 0.016351297 -0.06747624
000120 79 6a 28 3e ff e8 dd bc 74 d9 b1 bd 56 e6 0d 3e
       0.16446866 -0.02708864 -0.08684054 0.13857397
000130 ee 5b ba bd 5f 8e c3 bc 38 18 b0 3d 75 02 02 be
       -0.090995654 -0.023871599 0.08598369 -0.1269625
000140 a3 43 10 be 20 88 0d 3d 69 41 5f bc a9 11 00 3d
       -0.14088301 0.034553647 -0.013626435 0.031266842
000150 97 67 16 3d 54 aa 03 3e 27 26 39 3e 20 e2 54 3e
       0.036719885 0.12857944 0.1808096 0.20789385
000160 d1 34 b5 3d 3e 80 e7 3d ea 28 bf bd 37 13 0e 3e
       0.088479646 0.11303757 -0.093339756 0.13874517
000170 3e 0c 0d 3e e1 d6 0e bc fa 19 30 3d 1b 51 86 3c
       0.13774201 -0.008718223 0.042993523 0.016396096
000180 35 93 05 be a1 b8 6d 3d 3c 64 19 bd 7a 6f ff bb
       -0.13044436 0.058037404 -0.037449107 -0.0077952715
000190 e6 dd 4e bb 12 70 a8 3d 6c 11 53 3e 49 92 61 bd
       -0.0031565367 0.08224501 0.20612115 -0.05507115
0001a0 6b 80 05 be 11 36 34 3e 42 b5 6d bc 6d 20 94 3b
       -0.13037269 0.1759875 -0.014508547 0.004520467
0001b0 76 7e ae 3d f1 74 30 3d 4d a6 64 bd e2 2a 46 3e
       0.08520214 0.043080274 -0.05582266 0.19352296
0001c0 ed d6 a5 bd 99 13 e8 3d ef 4b c9 3d 6e 14 2b bd
       -0.080976345 0.11331863 0.09828936 -0.04176753
0001d0 ce 0f 1d 3e 94 c2 d9 3d 70 f2 8c 3d fe 72 2f 3d
       0.1533806 0.10632816 0.06882179 0.042834274
0001e0 b5 0e ed bd 89 4b 8c 3b d6 d7 26 be 9f 88 97 bc
       -0.11575071 0.0042814654 -0.16293272 -0.018497763
0001f0 dc 43 2a 3e 9f 9a fc 3a ca c1 4e be c8 ed 10 be
       0.16627449 0.0019272155 -0.20191112 -0.14153206
000200 02 4f a6 3d 45 05 31 bd db d0 9e bd 23 49 b9 bc
       0.08120538 -0.043217916 -0.0775468 -0.022617882
000210 60 b2 b2 bd 00 a3 58 3e 7e 2a 1c 3d ea d7 2a be
       -0.087254286 0.2115593 0.03812646 -0.16683927
000220 6a df d5 bd ad ae 13 bd 46 26 24 3e ea 7a 73 3e
       -0.104430035 -0.036055256 0.16030225 0.23777357
000230 2f 60 60 3e 08 4a 82 3c 40 a6 33 3e dd 97 63 3d
       0.21911691 0.015904441 0.17543888 0.05556475
000240 0e 0c b2 bc fc 8c 22 3e eb 0f 44 3e 6a 47 40 3e
       -0.021734264 0.15874094 0.19146697 0.18777242
000250 2c 99 5e 3e 93 56 83 3e 93 af 0d be 1d 3d e8 bc
       0.21738118 0.25651988 -0.13836507 -0.028349454
000260 07 36 85 bd b0 1e ef 3d 38 12 06 3e 86 59 89 bd
       -0.065044455 0.11675775 0.13092887 -0.06706528
000270 36 86 5c 3e 72 48 f3 3d a5 25 e4 bd 53 d1 e7 3d
       0.21535572 0.11879052 -0.111399926 0.11319222
000280 e1 b7 4c 3e 16 7c 07 be 1c 29 86 bd a4 a1 07 be
       0.19992019 -0.13230929 -0.0655081 -0.13245255
000290 ec 8c 0d 3e e3 20 21 3e 9b f5 c5 3d 70 63 a4 bd
       0.13823289 0.15735202 0.09665986 -0.08026779
0002a0 22 8e 01 3e 5a 8b 8e 3d dc 93 df bd b5 55 7a 3d
       0.12651876 0.06960173 -0.10916874 0.061116893
0002b0 a3 64 3f be b9 2d 15 be d0 eb 2e bd 35 59 42 3e
       -0.18690734 -0.14568223 -0.042705357 0.18979342
0002c0 41 74 2e 3e 3b 8a 0e be 34 1e f8 3d a8 0d 1f 3e
       0.17036535 -0.13919918 0.12115136 0.15532553
0002d0 45 27 b9 bd e4 dc 48 bc af e8 c5 bd 11 0c 83 bd
       -0.09040693 -0.012259696 -0.096635215 -0.06398786
0002e0 54 4b fe b9 5b b8 dc bc ea 74 b3 bd 81 f1 a3 3d
       -0.0004850278 -0.026943376 -0.08762534 0.080050476
0002f0 22 73 36 3e c8 d0 67 3e 38 04 f9 3c 0b 36 4d 3e
       0.17817357 0.22638237 0.03039752 0.20040147
000300 4b ed 07 3d 1b 6c 48 3e 8b fb b7 bd c5 fa 66 3e
       0.033185285 0.19572489 -0.08983525 0.22556598
000310 66 9e 0c 3e 1e 8a a0 bd ec 1a 4a 3e 81 31 3b 3e
       0.13732299 -0.07838844 0.19736832 0.18280603
000320 da 43 2d 3e 39 24 c7 3c aa 4d a7 3d 06 34 04 bd
       0.16920415 0.024309264 0.0816911 -0.032276176
000330 ee 14 38 be a2 66 a9 3d 9f b7 ec bd 3e f8 2f 3e
       -0.17976734 0.08271529 -0.115584604 0.1718454
000340 00 17 f2 3d 27 08 97 bd b4 e1 19 3e 1e 15 f9 3d
       0.11820793 -0.07374602 0.15027505 0.12162231
000350 e4 5d 1b be 4a 64 47 3e 1b ec bd bc ab 10 49 bc
       -0.15172535 0.19471851 -0.023183873 -0.01227204
000360 21 39 32 be ff fe 37 be 54 e2 79 3d 86 a8 47 be
       -0.17404605 -0.17968367 0.06100686 -0.1949788
000370 ef e1 14 be 7d 5f ba 3d 27 0f 13 be fd b5 d3 bd
       -0.14539312 0.09100244 -0.14361249 -0.10337446
000380 a4 49 ae 3d ca 7e e4 bd 16 90 c8 bd a2 ac be bc
       0.085101396 -0.111569956 -0.09793107 -0.023275677
000390 60 01 48 be dd 80 fc bd c4 e3 fb bc ed 02 00 be
       -0.19531775 -0.12329266 -0.030748256 -0.12501116
0003a0 81 d3 2f be 1a d1 91 bc c7 db 84 bd 82 ff ce bd
       -0.17170526 -0.017799903 -0.06487232 -0.10107328
0003b0 cd 62 11 be 6a 64 b1 3d db 87 bc 3d f2 8d 1b be
       -0.14197846 0.086617306 0.092056 -0.15190867
0003c0 28 89 1d be 52 94 e2 3a 89 79 d5 3d b9 59 83 bd
       -0.15384352 0.0017286635 0.104235716 -0.064135976
0003d0 cd 79 2a bd 48 d5 05 be ee 03 25 3d c8 0f 3d be
       -0.041620065 -0.13069642 0.04028695 -0.18463051
0003e0 84 e4 ae bc f0 34 f6 bc 76 7f 9b 3d 1a da 4a 3e
       -0.0213492 -0.03005454 0.075926706 0.19809762
0003f0 9c b0 b1 bd ac 1f 92 bd bf a6 79 3d 2d 4a 42 3e
       -0.08676264 -0.07134947 0.060950037 0.18973608

0.bias f4 [32]
000000 ae 9d 9c 3d ca 8c 47 3e d7 fb 24 3e d6 69 5b 3d
       0.076472625 0.194873 0.16111694 0.05356773
000010 a8 0b f9 bc 3b 90 18 bd 69 a8 08 3e 47 6d ba 37
       -0.030401066 -0.037246924 0.13345493 2.2223814e-05
000020 16 00 34 3e db e4 34 3e f9 9f 1a be 3c 52 ce 3d
       0.17578158 0.17665426 -0.15100087 0.10074279
000030 11 ee 30 3e 27 69 e9 3d 3c 09 57 3b 99 f6 8f 3d
       0.17278315 0.11397009 0.00328119 0.07029457
000040 46 e4 12 3a a8 4d b0 b9 bc 3b ef bc af 3f a9 3d
       0.00056034734 -0.00033627194 -0.029203288 0.082641
000050 ec 2b 51 3e 92 88 e4 bd 11 e4 a0 bd 17 06 ae bd
       0.20426911 -0.11158861 -0.07856 -0.08497255
000060 3b ad 2d 3e bf 97 80 bb 7d 33 fb bd 2c 26 b6 ba
       0.16960613 -0.0039243395 -0.1226568 -0.0013896874
000070 e2 19 8b 3c cf 89 28 3e 81 e1 38 3d a8 35 61 3e
       0.016980115 0.1645882 0.045136932 0.21993124

2.weight f4 [32, 32, 5, 5]
000000 33 98 1a 3d 2e 5b 0d 3d a3 54 39 bc 5b 51 45 3c
       0.037742805 0.034510784 -0.011311683 0.012043322
000010 20 1d db 3c 63 ed 6c 3c e5 51 28 bc c0 65 55 3c
       0.026747286 0.014460894 -0.010273431 0.013024747
000020 49 f4 9b 3c ce 6c 88 bb 22 a7 1b 3d 76 79 0a 3d
       0.019037383 -0.004163361 0.038001187 0.03380724
000030 1f 0f 32 bb 2d 0d bd bc 2e cf 73 3c ab 67 31 3d
       -0.0027169657 -0.023077572 0.014880938 0.043311756
000040 06 28 ff bb ea 8d 4d bc d6 8d db 3c 73 c0 9c bb
       -0.0077867536 -0.012546042 0.026801031 -0.004783684
000050 3f 0e f7 3c da 7f a1 bb 98 18 2a 3c 9a 11 79 3c
       0.03015816 -0.004928571 0.01038184 0.01520195
000060 e5 e4 f2 bb 99 b8 3f 3d d8 fa 26 39 cd 82 fd 3c
       -0.0074125403 0.046806905 0.0001592444 0.03094616
000070 33 c5 90 bb 45 62 f8 3c 56 4f 8b 3b 3c 03 52 3d
       -0.004418039 0.030320296 0.004251401 0.051272616
000080 c7 89 45 3d 65 2c 1b 3d 00 be 67 3c 04 83 90 3c
       0.048227098 0.037884135 0.014144421 0.017640598
000090 43 27 1f 3b 60 a2 63 3d 7e a5 a7 3b 12 28 ea 3c
       0.0024284876 0.055574775 0.0051161638 0.02858356
0000a0 e3 1c 12 3c 47 dc 37 3c 6b fc 1f 3b 7a 87 e7 3c
       0.00891802 0.011221952 0.0024411927 0.028262842
0000b0 12 10 74 3d 62 b9 af 3c 2e 9e 36 3c c7 f9 6d 3d
       0.05958564 0.021450702 0.011146111 0.058099534
0000c0 ac 3d 20 3d 42 4f ac 3c 7b bf d6 3c 89 39 31 bb
       0.039121315 0.021033887 0.026214352 -0.002704235
0000d0 aa 0d 38 3d 2b 96 0b 3d 0b dd 1b 3d e8 73 4b 3d
       0.044934906 0.03407876 0.0380526 0.049671084
0000e0 9a d6 42 3d a9 e9 44 3d 2e e1 a3 3b 30 01 9a 3c
       0.04756794 0.0480744 0.0050012087 0.018799394
0000f0 f8 74 23 bc d7 08 42 3c f6 91 a6 bb cb a6 18 3d
       -0.009976618 0.011842928 -0.005083318 0.03726844
000100 35 ca 23 3d 3c 54 20 3c e0 da 4b 3d a2 8e ba 3c
       0.03998776 0.009785708 0.049769282 0.02277309
000110 59 7b 52 bc 84 47 15 ba c3 da 3e 3d e9 0a 17 3d
       -0.012846791 -0.00056945556 0.046595346 0.03687564
000120 78 e2 13 3d 13 7f 9d 3c d6 53 1b bb 66 0a 26 3c
       0.03610465 0.019225633 -0.0023701093 0.010134315
000130 a7 2b 85 3c 02 98 10 3d 89 a4 e2 3c b5 c9 d4 3c
       0.016256167 0.035301216 0.027666347 0.025975088
000140 f1 aa 45 3d ba 1f 32 3d b9 ba 36 3d ad 8d a7 bc
       0.048258726 0.043487288 0.044611666 -0.020453298
000150 8c 95 d2 3b da ac 07 3d a5 a5 2c ba 6d bc 9b 3c
       0.006426519 0.03312383 -0.0006585962 0.019010747
000160 39 be 04 bc 15 e5 b0 bc 65 74 7b 3c 5e ec fa bc
       -0.008101993 -0.02159361 0.015347575 -0.030630287
000170 64 4b 99 3c 06 25 27 bb 52 b9 56 bd e7 32 a4 3c
       0.018712707 -0.0025504245 -0.05242283 0.020043803
000180 70 7f 78 3c 54 f2 ce bc e7 d0 78 bc 80 33 96 bc
       0.015167102 -0.025262035 -0.015186525 -0.018335104
000190 9f cc 39 3d 8c 36 d7 3c 24 4f 9e bc 39 af 8e bc
       0.045361158 0.026271127 -0.019324847 -0.017417537
0001a0 1a d3 c8 3c 67 5e 70 3c 4f 2f 0b 3d 3b 13 49 bb
       0.024514724 0.014670945 0.033980664 -0.0030681628
0001b0 16 ff ba bc 14 6d 03 3d 2c 19 ad 3c f9 10 dd bc
       -0.022826713 0.032086447 0.021130167 -0.026985632
0001c0 ce d1 b1 bc 1c 56 3a 3c e7 38 a7 bc 2c 05 9c bb
       -0.021706488 0.011373069 -0.020412875 -0.0047613587
0001d0 6a db 0e bd 36 bd de 3b 8d d3 30 bd 0c 0d b7 3b
       -0.03487722 0.006797458 -0.0431705 0.005586272
0001e0 17 f5 99 bc 6d 39 f8 bc 51 af 37 3c ae b3 2d bd
       -0.018793626 -0.03030082 0.011211232 -0.042407684
0001f0 56 d5 71 bd 30 2d 7f bc a3 f1 d6 bc 09 d2 dd bc
       -0.059041344 -0.015574738 -0.026238268 -0.027077692
000200 5b dc 93 bc a4 1b 3d bd de 53 f3 3a a0 b7 69 3c
       -0.01804941 -0.04616894 0.0018564423 0.014264971
000210 81 71 2c bd fc 34 1e bd 86 46 3f bd 6f 7b 50 bb
       -0.042100433 -0.03862475 -0.046698116 -0.0031811853
000220 f3 54 fd bb 0c 38 e7 bc 2c 5c 4e bd 4c 6e ba bc
       -0.007731074 -0.028224967 -0.05038087 -0.022757672
000230 c2 3f f2 bc b3 6a 2e bd 0a 6e 60 bd 4a 99 52 bd
       -0.029571418 -0.042582225 -0.05479244 -0.05141572
000240 ee 67 2b bd 48 3a 1e bc 9f 36 5b bc b7 bc 6a bd
       -0.041847162 -0.00965745 -0.013379722 -0.05730888
000250 30 9a e2 bc 5d c2 26 bd cf 78 9f 3b f6 f8 f4 3a
       -0.027661413 -0.040712703 0.0048666964 0.0018689919
000260 3a b2 18 3d cb 9d 5a 3d 89 81 2a 3d e2 c5 32 3d
       0.037279345 0.05337314 0.04162744 0.043645747
000270 a1 2a 37 bc 08 ac 00 3d f3 14 04 bc 87 c7 5b 3b
       -0.011179597 0.03141406 -0.008061635 0.0033535676
000280 e7 77 ba 3c 2c 30 42 bc 6e 13 43 3d 93 7a a9 ba
       0.022762252 -0.011852305 0.04762595 -0.0012930207
000290 38 50 f6 3c b5 89 8d bc 68 70 a2 bc 66 11 21 3b
       0.030067548 -0.017277578 -0.01982899 0.002457702
0002a0 2e 54 8b bc 87 53 da 3c d6 f8 f8 3a 64 67 3f 3d
       -0.017007913 0.026651157 0.0018995057 0.04672946
0002b0 52 96 20 3d 6e 89 a5 3b d0 86 5e 3d d4 9e 39 bc
       0.039205857 0.0050517833 0.054327786 -0.0113293715
0002c0 ff e9 14 3c 7c 6c d4 3c 56 a6 9d 3b 36 2b 34 3d
       0.009088992 0.025930636 0.0048110886 0.04398652
0002d0 37 98 cd bc c8 09 e3 bc d1 68 f8 bc 2b b3 34 3c
       -0.025096996 -0.027714625 -0.030323418 0.011029045
0002e0 ed b1 ac bc fe 48 a6 bc e4 aa 03 bc 00 16 39 bc
       -0.021080935 -0.020298477 -0.008036349 -0.011296749
0002f0 47 06 10 bc fc d3 8b bc da cc d9 bc 88 eb c7 3b
       -0.008790559 -0.017068855 -0.026586939 0.0061010756
000300 ca 54 c1 bb 8e a9 00 bd b3 f6 f1 37 5a 31 c6 bc
       -0.0059 -0.0314117 2.8844317e-05 -0.024193455
000310 a2 d1 3c ba bc 35 18 bd 35 0a b2 bc 0d 4b 20 bd
       -0.00072028686 -0.03716062 -0.021733383 -0.039134074
000320 94 a6 84 3b 68 4d 3a 3d dc de 84 3d 8f d4 5a 3d
       0.004048178 0.045483977 0.064878196 0.053425368
000330 1f ee d9 ba 58 c3 df 3c fc ba 5f 3c 2a fd d2 3c
       -0.0016626752 0.027314827 0.01365542 0.025755484
000340 b3 18 b8 3c 15 7f 4b 3d 75 72 07 3d fb 3b 29 3d
       0.022472715 0.04968174 0.03306814 0.041316967
000350 62 72 85 3c 13 e1 79 3d a3 40 6a 3d cf db 00 3c
       0.016289894 0.061005663 0.05719055 0.007864906
000360 64 94 f2 3c a1 63 11 3d c4 c7 69 3d 5b 3e 55 3d
       0.029611774 0.035495404 0.057075277 0.05206142
000370 5d b8 2e 3b 22 4c 44 3d 93 b7 29 3d b8 c4 36 3c
       0.0026660182 0.04792417 0.041434836 0.0111553
000380 73 ce 5d bb cd 91 ed 3c 6c 19 8d 3d 7f 65 9a 3d
       -0.0033844977 0.029000187 0.068896145 0.0753889
000390 a3 5e db 3c f0 80 fc 3c 87 e2 92 3d 9a 0a 81 3d
       0.026778525 0.030823201 0.07172113 0.0630085
0003a0 73 99 b0 3d 66 44 3c 3d cf 62 1c 3d 97 d2 57 3d
       0.08623018 0.045963667 0.03818017 0.05269107
0003b0 fd f9 99 3c 57 bd 46 3d 5f ef a7 3d 2d 6f 35 3c
       0.018795962 0.048520412 0.08199953 0.01107387
0003c0 e2 f7 74 3d b2 fe 4b 3d ee 61 8c 3d 2c 24 92 3c
       0.059806712 0.049803443 0.06854616 0.017839514
0003d0 43 39 85 3c 1a 76 1a 3d 04 9a d7 3c c5 51 89 3d
       0.016262656 0.037710287 0.026318558 0.067050494
0003e0 ec 6a a5 3d 45 2a 03 3d 1d 70 72 3c 9d 31 19 3b
       0.08077034 0.032022733 0.014797238 0.002337552
0003f0 f2 b9 3c bc c7 01 34 ba 63 a3 c2 bc 6c c2 6c bc
       -0.011518942 -0.000686672 -0.02375955 -0.014450651

2.bias f4 [32]
000000 90 3e 33 3d f1 ba ab 3d 2f ab b2 3b 2f 22 73 3d
       0.043760836 0.083852656 0.0054525356 0.059358772
000010 87 8f 5e 3c 54 10 df bc 8a 0b 0c 3d f8 4b d1 3c
       0.013584024 -0.027229466 0.034190692 0.02554892
000020 14 03 c5 bc 1a 3a 54 3d 66 66 36 bd de f4 6d 3d
       -0.02404932 0.051813222 -0.04453125 0.05809485
000030 de 3d 0c bd 43 2c 33 3c 2a 6f 0f 3d f0 4e 4b 3b
       -0.03423869 0.010935846 0.035018124 0.0031022392
000040 3e 49 3f 3d 5a 32 28 bc f6 bc 31 3d 6e 23 32 3c
       0.04670071 -0.010265911 0.043393098 0.010872705
000050 68 e1 1c 3d ce d3 37 3d 4c 46 93 3c 2b a9 b0 3d
       0.0383009 0.044879727 0.017977856 0.08626016
000060 94 d1 5e bc 8d f1 cd 3c a7 4e 3d bb 3a ca 14 3c
       -0.013599772 0.025139594 -0.0028885992 0.009081418
000070 b9 e4 41 bc 6f 1e 03 3d 0b c3 51 3c bf 4e 4e 3d
       -0.011834317 0.032011446 0.0128028495 0.050368067

5.weight f4 [32, 32, 3, 3]
000000 4c 13 6f 3d e2 9d 71 bc 2b 17 61 3b 94 29 ba ba
       0.058368012 -0.014747115 0.0034346085 -0.0014203065
000010 8f fa 55 3c 97 19 04 3b e9 ec 3a 3d 2b b8 a2 3d
       0.013060226 0.0020156854 0.04563609 0.079452835
000020 88 58 02 bd 6d 9f 85 3d e1 6e c1 3d af 1f 5f 3d
       -0.03182271 0.06524549 0.094449766 0.054473575
000030 43 d7 aa 3d dd 54 d3 3d ad 9f b5 3d 6f 04 c4 3a
       0.08341839 0.10318921 0.08868346 0.0014954935
000040 3a 51 2a 3d e9 7f 4e 3b 08 c2 51 3d d4 3b c5 3c
       0.04158137 0.0031509346 0.051210433 0.02407638
000050 01 b6 4b bc 01 64 a0 3d 1b 3e 01 3e 46 a1 cd 3d
       -0.01243353 0.07831574 0.12621348 0.10040526
000060 b5 d0 c8 3d 17 6e 1a 3d 73 ca 86 3c 8c ca 56 3d
       0.09805433 0.037702646 0.016453957 0.052439258
000070 ba 51 13 3a 4f 80 81 3d 67 94 6a 3c 10 38 ed bc
       0.0005619783 0.06323301 0.014317608 -0.028957397
000080 8c be 3f 3d 0c 3e ac bc 26 97 4c 3d f6 0e a3 3d
       0.04681258 -0.02102568 0.049948834 0.07961838
000090 9f 04 76 bd 84 14 86 bd 50 27 64 bd 87 a2 43 bc
       -0.060063 -0.06546882 -0.055701554 -0.011940605
0000a0 29 16 8f 3c bd 02 76 bd 6b 53 97 3d d8 79 a4 3d
       0.017466621 -0.060061205 0.073889576 0.08031052
0000b0 c7 55 ad 3d 6e 5c e9 bd 36 d6 b2 bd fc 11 6a bd
       0.08463626 -0.11394583 -0.08732264 -0.057146057
0000c0 2d 12 d7 bd dc 21 88 bd 21 f4 01 3c 39 5f d8 3c
       -0.10501514 -0.06647083 0.00793174 0.026412593
0000d0 a8 ad 9e 3d 89 fc a4 3d 55 9a 19 3d 3c 14 0d bc
       0.07747966 0.0805598 0.037500698 -0.008610781
0000e0 0b 57 82 3d 39 25 0e bd 34 8b 0c bd 45 66 0a bb
       0.063642584 -0.034703467 -0.034312442 -0.0021118086
0000f0 7d b9 4c bc 42 a2 91 3d a3 a0 82 bc 4c 3e c1 bc
       -0.012495396 0.07111026 -0.015945738 -0.023589276
000100 82 4d 36 3d 01 79 02 3d 74 7f 0b bd 14 c2 1a 3d
       0.04450751 0.03185368 -0.034057096 0.037782744
000110 fe cf a4 3d 6f d0 4c 3c 49 60 4e 3d f0 b0 b4 3d
       0.08047484 0.012500866 0.050384793 0.08822811
000120 81 b5 57 bd 71 18 df bd c7 30 8b bd f9 88 a2 bd
       -0.05266333 -0.10893334 -0.06796413 -0.07936282
000130 32 67 b9 bd 06 e4 d0 3c 8e 40 47 3b bc f9 59 bc
       -0.09052886 0.025499355 0.0030403468 -0.01330417
000140 a3 3b e1 bc 69 ef 9a 3b 95 2e b3 3d e7 09 8f 3c
       -0.027494257 0.004728247 0.08749119 0.017460776
000150 b0 1a cb bb 36 62 a1 bc f3 44 74 3d d1 7e ac 3d
       -0.0061982498 -0.019700151 0.059636068 0.08422626
000160 9f 0d 7e 3d 49 2f 33 bc 5e f9 e0 bc 1c 3f 8e 3c
       0.06202471 -0.010936567 -0.027462658 0.017364077
000170 c0 2a 44 bc 22 67 71 bc be 84 cf bc ff fa 69 bd
       -0.011973083 -0.014734061 -0.025331851 -0.057124134
000180 19 78 8f 3c 11 06 b2 3c be 4c 2e 3c e3 95 68 3c
       0.017513322 0.021731408 0.010638414 0.014195892
000190 41 e0 5c 3d cc 61 b3 3d c6 be 92 3d e0 b6 70 3c
       0.053924803 0.08758888 0.071652934 0.014692038
0001a0 f7 9e de 38 f8 0a 06 3d f2 f6 8d 3d 1d 5a f8 bb
       0.000106153944 0.032725304 0.06931867 -0.0075791017
0001b0 14 0f 70 3e 94 de f3 3d 26 bb 3f 3e 97 19 6d 3e
       0.23443252 0.11907688 0.18723735 0.23154293
0001c0 e7 ea 3b 3e 06 da 1d 3e d8 47 1f 3e 69 d4 aa 3d
       0.18351327 0.154152 0.1555475 0.08341295
0001d0 f1 bb 02 3e fc b6 4a bc df f1 8e 3a 62 a6 08 3c
       0.12767006 -0.012372728 0.0010905823 0.00834045
0001e0 7b c9 02 3d 28 2a fa 3b 6c 03 a3 bc d4 ea 34 3c
       0.031930428 0.00763442 -0.019899093 0.0110423155
0001f0 d4 03 2b 3c a0 97 56 bc 43 f1 ab bc f1 25 06 3d
       0.010437924 -0.013097674 -0.020989066 0.032751027
000200 31 96 94 bc da 54 62 3c 2c a4 2e 3c 75 e0 78 3d
       -0.018138023 0.0138141755 0.010659259 0.060760934
000210 25 2f a7 3d e6 32 6b 3d 30 4e 97 3d c4 14 2f bd
       0.08163289 0.057421587 0.0738796 -0.042744413
000220 71 0c 87 3c 8a 74 b3 bb 42 fa 36 bd cc df 04 bd
       0.016485425 -0.005476539 -0.04467226 -0.03243999
000230 dc f4 5a 3c 06 36 19 bc b4 ec ae 3c e7 21 8a 3d
       0.013364043 -0.009351259 0.021353103 0.067447476
000240 68 4a 9e 3d 39 82 67 3d 17 53 9d bc dc b4 a6 3d
       0.077290356 0.056520674 -0.01920466 0.08139965
000250 ba 6c 82 3c 1f 7b 75 3d 7b 13 e5 bb 4d 0a e1 3a
       0.015920985 0.05993187 -0.0069908476 0.0017169208
000260 c7 07 75 3d 41 35 d5 bd dd c3 57 bd 68 a1 bc bd
       0.05982187 -0.10410548 -0.052677024 -0.09210473
000270 6d fe bc bd 5d 68 af bd a4 5f 99 bd 5d d3 27 bd
       -0.09228215 -0.085648276 -0.07488945 -0.040973056
000280 73 12 a2 3c 8c dc 07 3c 86 f0 08 3e 41 6f 16 3e
       0.019784188 0.008292329 0.13373002 0.14690877
000290 28 63 8e 3d ab 42 21 3e e6 97 2e 3e 3e 62 3c 3d
       0.06952506 0.15748088 0.17050132 0.04599213
0002a0 ba 9e c8 3d 22 be 14 3e 72 63 0f 3e ef f8 7e 3d
       0.097959 0.14525655 0.14002779 0.06224912
0002b0 22 68 5a 3d e0 bd 23 3d 99 ea b7 bc 9c 1a df 3c
       0.053321965 0.039976 -0.022450732 0.027234368
0002c0 13 75 c6 3d 88 bd 9b 3d aa f5 cc 3c a5 ed 48 3d
       0.09690299 0.076045096 0.025019486 0.04905476
0002d0 73 01 04 bc d1 30 42 3d c8 29 f1 3b 07 d5 76 3d
       -0.008056986 0.047409836 0.007359717 0.060261752
0002e0 69 65 23 3d ad 2a a5 bc f9 89 0e bd 2a cd 50 3d
       0.039891634 -0.020161951 -0.03479955 0.05097691
0002f0 fe 86 94 3d eb 4f 88 3d 62 3f 75 bc ce 0f 49 3d
       0.0725231 0.06655868 -0.014968725 0.04908734
000300 d5 f9 e5 3c 17 0b 86 3d 4b 99 bb 3d 95 40 87 3d
       0.02807323 0.06545084 0.09160098 0.06604115
000310 5e e3 ab 3d 50 49 c4 3c 12 84 e8 3c 14 6c c8 3d
       0.08392976 0.02396074 0.028383289 0.09786239
000320 2b 3d 9e 3d 47 c9 a5 3d e3 93 2c 3d 14 db 55 3d
       0.077265106 0.08095031 0.042133223 0.052210882
000330 35 e9 9a 3d c2 51 c0 ba 9e 7c aa 3d 7d fd d6 3c
       0.07564012 -0.0014672803 0.0832455 0.02624392
000340 00 47 43 3d 09 a7 cd 3d d7 6b 93 3d e4 ea 91 3c
       0.047675133 0.10041625 0.07198303 0.0178122
000350 89 7d c9 3c 23 d5 e0 3d 40 88 8b 3d e5 29 9d 3d
       0.024595993 0.109781526 0.06813097 0.076740064
000360 51 7f c8 bc a5 85 85 3d b0 54 b0 3d 90 c9 43 3d
       -0.024474772 0.06519631 0.08609903 0.047799647
000370 82 73 14 3c d7 d8 4e 3d a2 10 ae 3d 28 15 a8 3d
       0.009060742 0.050499763 0.08499266 0.0820716
000380 74 d3 88 3d 43 a9 8f bd a3 d2 97 3c 8a 22 10 3d
       0.066809565 -0.07014706 0.018533057 0.03518919
000390 3d 90 41 bc cc 4d 89 bd e1 8e 02 bc 55 83 39 bc
       -0.011814174 -0.06704292 -0.007968635 -0.011322816
0003a0 48 1c a8 3d 75 e6 00 bc 6c ac d2 bd 88 56 91 bd
       0.08208519 -0.007867445 -0.10286793 -0.07096583
0003b0 b2 8c ae 3c a8 ea 40 bd 51 5a 3c bc ae 2b fc 3c
       0.021307323 -0.047098786 -0.0114961425 0.030782547
0003c0 cd ad 9e bc 5f 2f 23 3d 74 c0 93 3d 09 80 ea bb
       -0.019369984 0.0398401 0.07214442 -0.0071563763
0003d0 51 65 c9 3b 12 4a 27 3d d5 6d 25 3d 53 d6 13 bd
       0.006146111 0.040842123 0.040387947 -0.036093067
0003e0 4a 04 b2 bc 6c b1 88 3d 96 62 46 3d 33 34 5d 3d
       -0.02173056 0.066744655 0.048433863 0.05400486
0003f0 e0 79 97 bd 98 f2 c0 bd 93 83 3a bd 09 1d 4f bd
       -0.07396293 -0.09421271 -0.045535635 -0.0505648

5.bias f4 [32]
000000 77 ea af 3d 83 d9 5a bd 19 87 67 3c ff 69 bb 3c
       0.085896425 -0.05343009 0.014131331 0.022877691
000010 d2 5a 76 3d c7 d3 94 3d 02 92 61 3b 95 94 a7 3c
       0.060145207 0.07266956 0.0034419303 0.020456592
000020 48 f9 52 bd d6 ca 44 bd 84 8e c7 3d a9 42 8e 3d
       -0.051507264 -0.048045002 0.097439796 0.06946308
000030 5a ea 89 3d dd ca 34 bd e5 76 da bc c3 4b ab 3c
       0.06734152 -0.044138778 -0.026668021 0.02091015
000040 c1 41 9b 3d e5 d4 cc bc 7a e8 93 bc bd 4c 7d 3c
       0.07580901 -0.02500386 -0.01805519 0.01546019
000050 a0 2f a3 3d f9 99 82 3d a1 72 13 3c 06 2b 94 bc
       0.07968068 0.06377024 0.008999498 -0.018086921
000060 bb 10 b4 3d ef 95 5b 3d 78 21 02 bd 50 7c 7c bd
       0.087922536 0.053609785 -0.0317702 -0.06164199
000070 8b fb af bc 49 44 c8 bb de a2 10 3d aa ba 90 3d
       -0.02148225 -0.006111656 0.035311572 0.07066853

8.weight f4 [32, 32, 3, 3]
000000 ad 2f c1 bd 53 bd 97 3c 92 48 a2 3d 64 a3 28 bc
       -0.094329216 0.018522894 0.07923998 -0.010292862
000010 ab 9a c3 3b 20 73 84 bc 29 f2 28 bd 1c 43 61 bc
       0.0059693656 -0.016168177 -0.041246567 -0.01374891
000020 dd 9c a9 3d 95 81 a1 bd 20 0c 85 bc 12 bf 97 3c
       0.082818724 -0.07886044 -0.016241133 0.018523727
000030 13 b9 33 be cd 1f 92 bc d3 05 a7 3d c1 11 6e bd
       -0.17551069 -0.01783743 0.08155408 -0.0581224
000040 96 1d 01 3c 3a 05 bc 3c 4e e4 4d bb 01 c9 b1 bc
       0.007880589 0.022951711 -0.0031416598 -0.021702291
000050 60 9a 76 3d 07 ff fd bc ab 81 da bc e2 57 bf 3d
       0.060205817 -0.031005396 -0.026673159 0.09342934
000060 09 7b ca bb 2d e7 1d 3c 65 17 07 3d 64 cb 6d 3d
       -0.0061792177 0.009637636 0.032981295 0.058055297
000070 79 bb 91 3d 35 77 fe bc e1 09 23 3c 4a 5b c2 3a
       0.07115836 -0.031062702 0.009951086 0.0014828232
000080 13 c7 74 bd f9 bd 1a bd 22 c2 f6 3c e2 b3 5f bc
       -0.059760164 -0.03777883 0.030121867 -0.013653727
000090 4f e2 2b bc 89 6e ae bc 3d af 33 bd 3d 85 f3 3d
       -0.010490968 -0.021292942 -0.043868292 0.118906476
0000a0 6a 45 17 3c 7c 81 ee 3c 88 3b 83 bc ee 50 b7 bd
       0.009232858 0.029114477 -0.016019598 -0.08950983
0000b0 23 65 18 bd 95 73 86 bb 01 24 f0 bc 90 d8 57 3b
       -0.037205826 -0.004103134 -0.029314043 0.0032935478
0000c0 1c 16 1f bd 65 4f 3b bd 6b 8f cc 39 8e b8 0f bc
       -0.038839445 -0.045730013 0.00039016767 -0.008772029
0000d0 f5 35 55 bd 0f 06 89 bc 76 39 a0 3c 6d c5 cb bc
       -0.05205341 -0.016726522 0.01955865 -0.024874413
0000e0 6f 03 ed 3c 40 ec 81 bc 44 b9 2d bc 6a 0f 39 3d
       0.028932301 -0.015859723 -0.010603253 0.045180716
0000f0 e2 f6 53 bd 32 34 b9 3c 27 a3 9f 3d 56 06 86 bd
       -0.051749118 0.022607896 0.07794791 -0.06544177
000100 79 7b 4c 3a ad 08 bd bc 78 73 1e bd 68 10 ce 39
       0.0007800381 -0.023075426 -0.03868434 0.00039303605
000110 09 af 16 be 88 be 1f be 07 d1 62 3a d2 26 7f bd
       -0.14715208 -0.15600026 0.00086523633 -0.06229288
000120 24 8b 35 bd 9a e6 b5 bd 06 f3 c3 3b 91 f5 fa bd
       -0.044322148 -0.088818744 0.0059798984 -0.12253869
000130 47 b4 5d bd 02 cd d0 3d 82 3f ee bc be 21 27 3d
       -0.054127004 0.10195352 -0.029083017 0.040803663
000140 23 49 8a 3c 3e 20 8c bc 3d a0 e3 bc 63 cf b5 3c
       0.016880577 -0.017105218 -0.027786369 0.022193616
000150 d9 e7 ad 3c 5f 9b 1d bc aa d2 7f 3d ea 6c d8 3c
       0.021228718 -0.009619563 0.062456764 0.026419122
000160 f0 ca 02 3c f1 0b 8f 3c 1f 43 de bd 58 5d 54 bd
       0.007982954 0.017461749 -0.10852646 -0.051846832
000170 15 79 68 3d 65 83 93 bd ec 95 97 bc fa 42 6a 3d
       0.056756098 -0.07202796 -0.018504106 0.05719278
000180 23 58 ed bd 75 6a 2b 3d 89 b4 8d bc 65 45 30 3d
       -0.11589076 0.041849572 -0.017298 0.04303493
000190 42 4d 17 3d 0b df ff 3c 85 5b 6c 3d c8 54 92 3d
       0.036938913 0.031234285 0.057704467 0.07145077
0001a0 8d ed e5 3c 45 82 a0 39 9b 04 0b bd 1f 79 5d 3c
       0.028067375 0.00030614636 -0.03393994 0.013517647
0001b0 aa a0 28 bd 6d b2 66 bd cb 70 98 3c 55 03 f3 3b
       -0.041168846 -0.056322504 0.018608471 0.0074161687
0001c0 0c 0e de 3c 36 85 a0 bd 83 31 5e 3c a6 ba 3a bd
       0.027106307 -0.07837908 0.013561609 -0.045588158
0001d0 e9 da 92 3c 76 f0 f4 3b 40 de 5f 3d 62 ca 26 bc
       0.01792665 0.0074749542 0.054655313 -0.010180088
0001e0 67 58 b1 bd c2 28 8c 3d 88 0b 9e 3d 2d 59 55 bd
       -0.086594395 0.068437114 0.07717043 -0.052086998
0001f0 d6 3b 9a 3d b9 32 56 3c 8a 7b 94 3d 81 41 8e 3d
       0.07530944 0.013073617 0.07250126 0.06946088
000200 20 30 47 bc 91 cc dd 3c c4 c0 32 3d 29 ec d0 bb
       -0.01215747 0.027075084 0.043640867 -0.0063758087
000210 df 4c 81 3d 3e 06 8d 3d e8 a6 ed bc a5 b4 3a bd
       0.0631349 0.06885956 -0.029010251 -0.045582432
000220 10 78 68 3b ab a0 06 3d 60 50 65 3d f7 33 7d 3c
       0.0035471953 0.03286807 0.055984855 0.015454284
000230 e1 f5 33 bd 97 ed 1f bd 0e 60 40 3d dc 44 95 3b
       -0.04393566 -0.039044943 0.046966605 0.004555328
000240 d6 94 1e 3d 2b d1 7e 3d 58 d6 48 3d f7 24 29 3c
       0.03871616 0.062211197 0.04903254 0.0103237545
000250 c5 6f ba bc 5a 7a 9e 3d ac d5 69 bd 2b 87 1a 3b
       -0.022758374 0.077381805 -0.05708854 0.0023579102
000260 8d 22 0c bc 6e 25 24 3b bd 33 cd 3b 65 0c f1 bb
       -0.008553159 0.0025046724 0.006262271 -0.007356214
000270 42 c2 d9 bc 65 11 b5 3c 69 09 83 bd e5 19 20 3d
       -0.026581887 0.02210302 -0.06398279 0.039087195
000280 dd aa 77 3d 06 bf bb bb b2 f0 dc 3c 5f 0a 43 bd
       0.060465682 -0.005729559 0.026970241 -0.047617313
000290 75 27 09 3d 96 55 89 3c 37 61 0e 3d dc 1e 6b 3c
       0.033484895 0.016764443 0.03476068 0.014350619
0002a0 64 ae 21 bd a0 1b bd bc 77 4f e8 bc 0a 4f de 3c
       -0.039472952 -0.023084462 -0.028358204 0.027137298
0002b0 bf 64 58 3d 5a 41 b6 3c 40 8d 5c 3d 28 72 49 3c
       0.052830454 0.022247959 0.053845644 0.012295283
0002c0 81 4d bf bd b2 de 53 bd 47 8e 60 bc 8e ed 9b bc
       -0.093409546 -0.05172605 -0.013705797 -0.019034173
0002d0 00 6f 58 3d 4c 6a 08 3b 04 b6 17 3d b2 52 e6 bc
       0.052840233 0.002081531 0.037038818 -0.028115604
0002e0 21 5b 18 3c 71 7f 83 bb 50 bf 13 3d 60 f1 33 bd
       0.009299071 -0.004012995 0.03607112 -0.043931365
0002f0 5d 67 9d 3b 05 dd 4d 3d 19 ac 1c 3d 6b 82 b0 bd
       0.0048035816 0.05025961 0.038250063 -0.08618625
000300 28 95 98 3d 5f 82 8a 3d b1 ca c1 bc 7b 39 8a bd
       0.07450324 0.067631476 -0.023656221 -0.06749245
000310 46 48 00 bd 26 b0 e8 bd 1b 57 57 bb 23 27 24 3d
       -0.031318925 -0.11361723 -0.0032858315 0.040076386
000320 f2 e7 30 bd b6 8b 66 3d db 50 cb 3b ca f8 37 bd
       -0.04318995 0.056285582 0.006204707 -0.044914998
000330 34 f0 0f bd c9 a2 b0 b9 ed d9 45 3d cf b8 04 3d
       -0.035141185 -0.0003369062 0.048303533 0.03240281
000340 c7 2d 1c 3d c3 4e 53 3d bc 96 00 3c 79 13 6b bd
       0.038129594 0.051588785 0.007848438 -0.057391617
000350 0a e8 9f 3c 3c 1a 30 bc 0e a4 c5 bc 25 30 66 bd
       0.019519825 -0.010748442 -0.024126079 -0.056198258
000360 6a 8a 8f bd 6d 64 50 3d cb 2b 81 bc 15 cc d2 bc
       -0.07008822 0.050877023 -0.015767952 -0.02573208
000370 ba fb 34 bd a5 92 cb bd d4 25 bd bd a0 67 85 3c
       -0.044185378 -0.099400796 -0.09235731 0.016284764
000380 8e bf a6 bd 51 f6 f0 b9 75 7d 29 3d 4f 91 9e 3c
       -0.08142005 -0.00045959887 0.04137941 0.019356398
000390 b2 ec 3b 3d 10 df 3b 3d 31 d9 41 3d 25 d2 b8 bb
       0.045880027 0.045867026 0.04732627 -0.0056402856
0003a0 7f b2 cf bc ce 04 8b 3d 89 5f a2 3d 80 97 69 3c
       -0.025353668 0.06788026 0.07928378 0.014257312
0003b0 c1 a4 d8 3c d4 c4 e2 bc 57 e0 81 3b cd 83 7e 3d
       0.026445748 -0.027681746 0.003963511 0.062137414
0003c0 4b bc ab 3c 20 ee 99 3d 69 e6 bf bc f8 2a 40 bd
       0.020963809 0.07516122 -0.023425298 -0.04691598
0003d0 c4 22 6f bc 8c 01 ba 3c 42 26 f3 3c 97 f6 29 3c
       -0.014595691 0.022705816 0.029681329 0.010373733
0003e0 d7 d2 a5 bc 80 25 34 bd a3 7c f9 3c e2 38 22 3d
       -0.020242138 -0.043981075 0.03045494 0.03960503
0003f0 45 75 68 3d c2 e9 9a bc 55 30 9e bd 05 9c 41 3d
       0.056752462 -0.018910293 -0.07724062 0.047267932

8.bias f4 [32]
000000 4f 42 e0 3c d9 11 45 bd 8a fe 08 bd 17 00 1f bd
       0.027375368 -0.048112724 -0.033445872 -0.038818445
000010 3c 4e 57 3b a8 4a fe 3b 5b d5 7b 3d e1 22 97 bd
       0.0032853028 0.0077603646 0.06148277 -0.073796995
000020 79 79 93 bd da 30 4f 3d 91 b6 38 bd 4b f0 7b bd
       -0.072009034 0.050583698 -0.045095984 -0.061508458
000030 84 47 7c bd b7 7f 57 bd 9b 8e a2 3d 4f 67 66 bd
       -0.06159164 -0.052612033 0.07937356 -0.056250867
000040 d4 5d e8 bc 40 01 57 3d e3 c3 4e bc 1b 5a 91 bd
       -0.028365053 0.052491426 -0.012619945 -0.070972644
000050 1f 58 61 3d e3 bb 89 3d a3 a3 8e bd d7 f3 b9 bc
       0.05501568 0.0672529 -0.06964805 -0.02269928
000060 0f 30 19 3d 4e 0e 52 3c 4c 0c 81 bb 91 85 50 bb
       0.037399348 0.012820793 -0.0039382335 -0.0031817893
000070 61 96 8f bc b7 20 a6 3d 98 5a d0 3d 32 f2 f1 3b
       -0.017527761 0.081117086 0.101735294 0.0073836083

11.weight f4 [1, 32, 3, 3]
000000 7a 51 5b 3d d9 46 b1 bd 89 29 a8 bc fa a8 63 3d
       0.0535445 -0.08656091 -0.020527618 0.05558107
000010 08 1d 3f 3d 36 a6 7c bc cb ce f2 bc f3 a7 b2 bd
       0.046658546 -0.015420487 -0.029639622 -0.0872344
000020 2c 1b ad 3b 32 37 59 3c 82 9f 10 3d 55 1a bc bc
       0.00528278 0.0132577885 0.03530837 -0.022961775
000030 e7 b6 63 bd 6a a6 3c 3d 08 91 57 3d f6 18 2d 3c
       -0.05559435 0.046057142 0.052628547 0.010565033
000040 01 4e 5f bc 0f 52 c8 3c a6 8e 6c 3c 23 18 c5 bc
       -0.013629437 0.024453191 0.014438307 -0.02405936
000050 b7 c8 3f 3d 53 c0 92 3b 4d 2b 69 3d b7 44 e5 3b
       0.046822276 0.0044784932 0.05692606 0.006996717
000060 59 f3 c3 bc 78 b7 0e 3d b1 36 a6 bc ec 9e 11 bd
       -0.023919748 0.03484294 -0.02028975 -0.03555195
000070 27 9a 2a 3d a0 8b 39 3c 71 5a 99 bc d4 a0 8e bc
       0.041650917 0.011324793 -0.018719884 -0.017410673
000080 23 35 3b 3d f5 ba ec 3c 19 59 18 bd cf 03 fe 3c
       0.045704972 0.028897742 -0.037194345 0.031007675
000090 ef e1 82 3b 1d f3 b3 bd 0c 8e 4d 3d d7 87 b9 bd
       0.0039942185 -0.087866046 0.050184295 -0.090591125
0000a0 ae a7 97 bc cf 73 fc 3b 87 34 c9 3d 60 f7 a0 3d
       -0.018512573 0.007704235 0.09824472 0.07859683
0000b0 1e 17 52 3d 8c 4e 82 bc 51 da 94 bc cf 60 97 bb
       0.051291578 -0.015906595 -0.018170508 -0.004619695
0000c0 11 35 96 3c 57 93 6b bd 9f b5 1d 3d e9 a5 98 bb
       0.01833585 -0.05751356 0.038503285 -0.00465845
0000d0 18 e5 08 3d 7d f5 5c bd ed a2 2a 3d da 42 44 3d
       0.033421606 -0.053945053 0.041659284 0.047915317
0000e0 57 59 68 3d 31 9a f7 bc e4 8a 06 3c 1d 28 79 bd
       0.056725826 -0.030224891 0.008211825 -0.06082927
0000f0 cb f7 eb bc 57 29 7c bd 26 6b 3e 3d 69 a1 e1 bd
       -0.02880468 -0.061562862 0.046488903 -0.11017115
000100 90 13 d3 bd c8 c3 6c 3c 3c 42 89 bd 01 01 22 bc
       -0.103064656 0.014450975 -0.06702086 -0.009887935
000110 1a a1 03 be 23 72 61 bd e1 fb 05 3d 7e 82 8c 3b
       -0.12854424 -0.05504049 0.032710914 0.004288017
000120 62 c2 46 bd a2 ba 24 3c d6 7a 98 bd f8 04 13 3d
       -0.04852522 0.010054262 -0.07445304 0.03589341
000130 57 2d b7 3d ee b7 66 3d 12 7c 21 be b2 1f a0 bd
       0.08944195 0.056327753 -0.15769985 -0.078185454
000140 12 0f 9d bc 6e 37 80 3d 57 b3 ce bc 99 fe d0 bc
       -0.019172225 0.062605724 -0.025232 -0.025512027
000150 3b 5c 8d 3d 23 91 bb 3c c3 39 3a bd 6a c9 81 bd
       0.06902357 0.022896355 -0.045465242 -0.06337245
000160 60 1b 18 3d 65 1d 55 3c fe 8d 8b bd e6 97 99 3d
       0.03713548 0.0130074965 -0.06814192 0.074996755
000170 32 bd eb b6 5d d0 c1 bc a2 4b ab 3c 82 e4 d7 bb
       -7.025571e-06 -0.023658926 0.020910088 -0.0065885196
000180 63 a3 e4 bd b6 42 30 3d 84 ed 63 3d a6 d6 c8 3c
       -0.11163976 0.04303237 0.055646434 0.024516415
000190 51 9b 4f 3b 31 12 6c bd 3a ca ef bc 01 dc 8a 3c
       0.003167827 -0.057634536 -0.029271234 0.01695061
0001a0 4c f1 96 bd 36 22 00 bd 58 45 52 3c 2e 22 b7 bd
       -0.073702425 -0.031282626 0.012833916 -0.08942066
0001b0 18 4c 25 bc 53 63 47 3d 3d d8 52 3c 14 1b 81 bd
       -0.010088943 0.048678707 0.012868938 -0.06303993
0001c0 e3 0c cd 3b 7c 46 0b bd de e2 9b bc ec 51 44 bd
       0.0062576397 -0.034002766 -0.019029077 -0.04792969
0001d0 64 e8 1a 3c e4 7c 80 bd 33 c7 84 bd 11 d1 ed bb
       0.00945482 -0.06273821 -0.06483307 -0.0072575887
0001e0 e4 64 6f 3d 4d 3d 0a bd 01 73 7a 3d 28 08 58 3d
       0.058445826 -0.033749867 0.061144833 0.052742153
0001f0 95 53 85 bd d6 13 05 3d 0e a8 51 3d 26 ff 06 3d
       -0.06510083 0.03248962 0.05118566 0.032958172
000200 de 5c 76 3d 48 ab d6 3b 52 60 6b 3c a6 e9 2a bc
       0.06014716 0.00655118 0.014366226 -0.010431683
000210 c7 e7 56 bd 56 21 17 3d 98 bf 1f 3d 11 fc 03 3e
       -0.052467134 0.036897026 0.039001077 0.12889124
000220 e1 01 46 bd 4a f4 9e bc 31 92 74 bd b4 0c 4c bc
       -0.048341636 -0.019403595 -0.05970973 -0.012454201
000230 76 ef 2f bd c6 63 12 3d 2f 5e 2a bd c6 c3 3d 3c
       -0.042952977 0.035739683 -0.041593727 0.011582321
000240 32 55 3b 3d f7 53 b4 3b f0 c3 68 bd 6e ab e9 3c
       0.045735545 0.0055031735 -0.056827486 0.028524127
000250 39 6f 84 bd 9e 7c bd bd 44 f5 c2 3c 3b 4b 1c 3d
       -0.064665265 -0.092522845 0.023798592 0.038157683
000260 e9 6f 96 3d 34 cd 78 3d a3 72 e2 3d 46 e8 66 3d
       0.07345564 0.060742572 0.110570215 0.056373857
000270 40 8b 22 3b 95 00 a7 3d a2 ab 51 3d ce 6a 58 3d
       0.0024802238 0.08154408 0.051189072 0.052836232
000280 b9 08 ed b9 8e 67 de bc 41 73 b4 3d 49 a6 9b bd
       -0.00045210661 -0.027148988 0.088110454 -0.07600076
000290 56 b7 61 3d c8 c5 09 be 6a 77 80 bd fe 84 12 3d
       0.055106483 -0.13454354 -0.062727764 0.035771362
0002a0 cf 38 18 be be e4 ab 3d d7 f8 8a bd 00 fd 1f 3d
       -0.14865421 0.083932385 -0.06785744 0.03905964
0002b0 6c 8e 47 3c cd 71 85 bd a1 ef 89 bc 29 3c a3 3b
       0.012179952 -0.065158464 -0.016837897 0.004981537
0002c0 80 c6 41 3d a8 1c a3 bc f4 56 62 bd 2b 40 2f 3d
       0.047308445 -0.019911125 -0.055258706 0.042785805
0002d0 11 54 d9 bb 3a c5 ac 3d 19 11 2c 3d 41 be 7c bd
       -0.006632336 0.084360555 0.042008493 -0.061704878
0002e0 72 89 6a 3d 5e 3a 98 3d 88 be a7 3b 62 91 a5 bd
       0.057259984 0.07433008 0.0051191486 -0.0808437
0002f0 f5 c3 13 bd 5b d7 75 3d c1 4a 13 be ae f5 f2 bd
       -0.03607555 0.060019832 -0.14383985 -0.11863266
000300 b6 d0 82 3d 4b 29 67 bd 33 72 e8 3c 97 3d 08 bc
       0.06387465 -0.056435864 0.028374767 -0.008315465
000310 0f 24 af bd 50 b1 03 be 72 a5 13 be 9b 8b e0 3d
       -0.085517995 -0.12860608 -0.14418581 0.10964128
000320 5d b0 ad bc af 7c 17 be 2e 65 05 3d 8e 54 6e bd
       -0.02120226 -0.14793657 0.032567196 -0.058186106
000330 15 e1 39 3c 05 28 a0 bc 56 e3 37 3d 70 a2 86 bd
       0.011345168 -0.019550333 0.04489454 -0.06573951
000340 0a 2f 47 bc 78 2a ff bd a2 75 8f bd a6 da 25 3d
       -0.012157211 -0.12459272 -0.070048586 0.040491723
000350 4f 95 85 bd c7 0a 7d bc 77 ce f5 bb 37 a6 18 be
       -0.06522619 -0.015444464 -0.007501419 -0.14907156
000360 35 44 61 3d 21 cf 48 3d 28 6a b0 3d 53 7c 81 3d
       0.054996688 0.04902566 0.08613998 0.06322541
000370 d6 6e 20 3d 72 b5 ac 3d e2 af 80 3d cb 4a 34 bd
       0.0391682 0.084330454 0.06283547 -0.04401664
000380 80 ee f1 bc 82 bc 6d 3d 12 32 6b bc 36 5e 2a 3d
       -0.029532671 0.058041103 -0.014355199 0.041593753
000390 c1 85 94 bc 49 3b 16 3d ac d7 15 bd 4f 13 65 bc
       -0.018130185 0.036677632 -0.036582634 -0.013981654
0003a0 68 6d 9a bc 18 14 15 3d 3a 4f 34 3d 7a 36 80 bd
       -0.018850997 0.036396116 0.04402087 -0.062603906
0003b0 66 29 cc bd d4 45 2b 3d 2b d2 78 3d 00 e7 44 3d
       -0.099688336 0.04181464 0.060747307 0.04807186
0003c0 76 9c 07 3d e7 e7 0b 3d 1e 2f 9d bd c5 0f 50 3d
       0.033108197 0.034156706 -0.076750025 0.05079629
0003d0 e6 77 4b 3d 65 b9 88 3c 58 37 7c 3d 6e 4f bd ba
       0.04967489 0.016689966 0.061576217 -0.0014443228
0003e0 b2 12 8d bc 19 05 28 bd 12 c3 59 3d ea 26 6e 3d
       -0.017220829 -0.041020487 0.05316455 0.05814258
0003f0 c0 62 98 3d bb 35 ac 3b 3c 1b 05 be fc 5e 7f bc
       0.0744071 0.0052554286 -0.1299867 -0.015586611

16.weight f4 [26, 40]
000000 67 b9 40 3e 07 7c 28 3d ce b5 87 3d 89 e4 1d 3e
       0.18820725 0.041133907 0.06626473 0.1541921
000010 61 52 39 3e 22 8d 93 3d 12 49 4b 3d 70 7d 60 bb
       0.18097831 0.07204653 0.049630232 -0.0034254454
000020 61 c2 61 3c 3f c5 14 3e 3a 74 86 bc 5b 46 14 3e
       0.013779254 0.14528368 -0.016412843 0.14479963
000030 32 e5 58 bd f4 aa 11 3d 7f a2 f2 3b 1d 30 21 bd
       -0.052952953 0.035563424 0.007404625 -0.039352525
000040 51 7d 3a 3e 6a b8 80 3d 87 48 02 be 1c cb e1 3d
       0.18211867 0.06285174 -0.1272298 0.11025068
000050 ad 3d 8f be 0a 59 02 3e 1a 64 09 be 3d b5 e3 bd
       -0.27976742 0.12729278 -0.13417092 -0.11118553
000060 32 f8 0d 3d 78 df 05 be 7c a8 ab 3d 5a 93 d6 3d
       0.034660526 -0.13073528 0.08381745 0.10477324
000070 59 2d 9c bd 91 4b e4 bd 6d 84 03 3e 18 58 ce bd
       -0.07625837 -0.11147226 0.12843485 -0.10075396
000080 dd 12 b7 bd 92 9d a3 3d 0f 50 c0 3d e0 4b 48 3d
       -0.08939145 0.079890385 0.0939027 0.048900485
000090 a3 01 ec 3c d0 03 03 3e 2f e3 a7 3d b3 81 a2 bd
       0.028809374 0.12794423 0.08197629 -0.079348944
0000a0 43 2f 5c 3e 43 ae 79 3e 51 76 60 3d 88 09 e8 3d
       0.21502404 0.24382882 0.054800335 0.11329943
0000b0 96 89 46 3e 69 dd 91 3c 26 7a 2f 3d 20 3f 05 bd
       0.19388422 0.017805772 0.0428411 -0.032530904
0000c0 20 a1 76 3d c5 0c e4 bc 8c 58 3e 3e 28 a2 e3 3c
       0.060212255 -0.02783812 0.18588465 0.027787283
0000d0 0c 94 64 3c e3 69 56 bd 6c 47 c7 bd 7c 06 8c 3c
       0.013951313 -0.052347075 -0.097304195 0.017092936
0000e0 08 9d 15 3e fa f9 21 3e be 25 60 3c 90 d1 d3 3d
       0.14610684 0.15818015 0.013680873 0.10342705
0000f0 9e a6 37 be 3a 67 27 bc f6 5b da bd 59 95 c5 bd
       -0.17934653 -0.010217482 -0.106620714 -0.096476264
000100 99 85 53 bc 4c 6e 30 ba 71 c7 e1 3d 30 4f ab 3d
       -0.01291027 -0.00067303027 0.110243686 0.08364713
000110 5b e8 bb 3d 14 db 51 3d 7a 9b c8 bd 7a 8d 1e 3e
       0.09175178 0.05123432 -0.0979528 0.15483657
000120 cb 32 b9 3d d1 74 80 bd 6f 75 0e 3d b3 8f 8f bd
       0.09042891 -0.06272281 0.034779962 -0.0700983
000130 14 01 a6 bd 49 8f 58 bc 2d 74 d7 3d 89 d5 cb bd
       -0.081056744 -0.013217756 0.10520206 -0.09952838
000140 68 6e 18 bd 1e 37 c4 3d 29 4c b4 bb 70 2a 1b 3e
       -0.037214667 0.09580825 -0.005502243 0.15152907
000150 5e 22 49 3d 58 11 5d 3e ae be c3 3c 87 7a ab 3d
       0.04910504 0.21588647 0.023894634 0.083729796
000160 f4 52 7e bc 62 49 8f bc 22 c0 56 3e 26 f2 c9 3d
       -0.015522707 -0.017491046 0.2097173 0.09860639
000170 2d cf 2f 3e eb 5f bc 3d a3 34 64 bd f4 f5 d1 bc
       0.17168875 0.091979824 -0.05571426 -0.025629975
000180 85 68 33 3c a9 44 3a 3b f1 a1 a9 3d 23 75 38 3e
       0.010950212 0.0028422272 0.08282841 0.18013434
000190 f6 21 a4 bd cf 4c bb 3b ff 83 04 be 97 55 88 bc
       -0.0801429 0.0057159434 -0.12940978 -0.016642375
0001a0 34 75 ef 3d 9b 42 8a bd a9 a3 0d be 05 c0 91 bd
       0.116922766 -0.06750985 -0.13831963 -0.07116703
0001b0 94 ea 2a bd ab 82 ac 3d 98 4c 0c 3d d5 f2 24 3d
       -0.041727617 0.084233604 0.034252733 0.040270645
0001c0 97 d5 d1 bc b1 b2 6d bd 5d 65 73 bd 6a 2d f3 3d
       -0.025614543 -0.05803174 -0.05942284 0.118738964
0001d0 10 2b 00 be bc c0 19 3e 03 42 73 bd 3d 89 92 3d
       -0.12516427 0.15014929 -0.059389126 0.071550824
0001e0 f6 17 9b 3d c1 14 f0 3c 4c a5 43 3e 9d 5d 9d 3e
       0.075729296 0.029306771 0.19106025 0.30735484
0001f0 c1 43 a1 3d a3 e5 aa 3d 6f 7b dd 3d 47 c3 ca 3d
       0.07874251 0.08344581 0.10814559 0.099005274
000200 ac 2b 15 bd a6 86 a5 3d ac c1 96 3d 8c 04 82 3d
       -0.036418602 0.08082323 0.07361159 0.063485235
000210 a6 53 14 3e 2e fe f2 bc ce b6 17 3e 8f b9 40 bd
       0.14485034 -0.029662218 0.14815828 -0.047051962
000220 f6 53 80 bd 83 08 bc 3d af 30 c2 bd ef d3 ae 3d
       -0.06266014 0.09181311 -0.09481942 0.08536517
000230 92 69 31 be be 9b f9 3d 6f c5 50 bb e6 8e 94 bd
       -0.17325428 0.121879086 -0.003185596 -0.07253818
000240 52 93 84 bd bb b8 15 be 4f 5f 63 3d b3 51 77 bc
       -0.064734116 -0.1462125 0.055510815 -0.015095162
000250 5a 49 fb 3a 75 a5 bb 3d ef 07 48 bd 80 39 b1 bd
       0.0019171641 0.09162418 -0.04883569 -0.086535454
000260 3a 1d 68 bd 40 c4 2d 3e 16 aa da bc 2b 8a 81 bd
       -0.056668498 0.16969395 -0.026692431 -0.063251816
000270 0b ae d6 3c 76 e9 c3 3d f0 dd 77 3c 1b 66 d1 bd
       0.026206037 0.095660135 0.015128598 -0.10224553
000280 db f3 f4 ba f1 95 f9 3d a9 01 13 3d 1e 88 79 3d
       -0.0018688397 0.12186802 0.035890255 0.060920827
000290 1d 56 9c 3d 57 1f 0c 3e 4f 30 ec 3c e6 6a 35 3e
       0.07633612 0.1368383 0.02883163 0.1771656
0002a0 1e 19 13 3e 9a 1d 09 bd 32 3e 5f 3d 59 33 e2 3d
       0.1436505 -0.033475496 0.054502673 0.1104495
0002b0 4b 2a ca 3c 13 3a f7 bd c2 89 b2 3d ac 45 f5 3d
       0.02467837 -0.12071624 0.087176815 0.119761795
0002c0 7a 86 84 3d 00 fd 0f 3e a5 b1 d7 bc af 69 8c 3d
       0.06470962 0.14061356 -0.026329825 0.06856095
0002d0 cf 56 f8 bd ec 62 d6 3d 7c 55 8d bd 91 c0 b5 3b
       -0.121259324 0.104680866 -0.069010705 0.0055466373
0002e0 e4 b2 13 3e 7a 80 b0 bd 5b 9a 44 3d fd d3 10 be
       0.1442371 -0.08618255 0.047998767 -0.14143367
0002f0 ca 6b 06 bd 44 f2 b6 bd 0d 31 e3 bd a4 79 2b 3e
       -0.03281764 -0.08932927 -0.1109334 0.16745621
000300 29 29 c6 3c dd d3 4b bc f8 0c cf bc 80 5d 19 3d
       0.024189549 -0.012440649 -0.025274739 0.037442684
000310 4a f9 03 3e fd 95 d3 3c af e4 d9 bd bc df f8 bc
       0.12888065 0.025828356 -0.10639321 -0.030380122
000320 1c 77 ec bd ba a9 3d bd 4f 7b 8f bd d7 d5 03 3e
       -0.11546156 -0.046304442 -0.07005941 0.12874542
000330 ff 95 b4 3d 8f bf 51 3d a2 c1 19 3e 4d 8f 0a 3e
       0.08817672 0.051208075 0.15015271 0.13531227
000340 ec 22 39 3d 58 c0 6c 3e f2 e4 07 3e 1a c4 f4 3c
       0.04519932 0.23120248 0.1327093 0.029878665
000350 9c 2e 56 3d 3e 4d 2b bb 1b 3f 07 3c 65 1f 30 3d
       0.052290544 -0.002613857 0.008254792 0.04299869
000360 36 d6 8f bd 38 72 f0 3c 1d b6 22 3d 42 e8 0b 3e
       -0.07023279 0.029351339 0.039724458 0.13662818
000370 d0 ae d0 bc c7 e8 fd 3d a6 42 84 ba de bb 67 bd
       -0.025473982 0.123979144 -0.0010090664 -0.05657565
000380 a2 a8 09 bd ea ee cb 3c 60 60 ab bd f0 93 ab bd
       -0.033608086 0.024894197 -0.083679914 -0.08377826
000390 5b 03 5d bc 12 bd 1b 3e 3d f3 5c bd f8 5f ee 3d
       -0.01348957 0.15208843 -0.053942908 0.11639398
0003a0 8e 7e 88 3d 0c bd 9c bd 8a 51 ba bd 1d 0e 94 bd
       0.066647634 -0.07653245 -0.090975836 -0.072292544
0003b0 6f 2b d1 bc 0a 2b ce 3d 23 ca b9 3b 50 34 45 3e
       -0.025533406 0.10066803 0.0056698485 0.19258237
0003c0 9d f2 6f 3e 4c 15 4c be c0 9d 17 bd 3c 6b 92 3d
       0.23432393 -0.19929999 -0.037015676 0.071493596
0003d0 2c 6c 79 3e 7b 76 7f 3e 81 e8 95 3d d1 19 76 3d
       0.2435767 0.2494754 0.07319737 0.060083214
0003e0 63 ad 8c 3d bb 1e e0 bc df 14 c7 bb 6d fd 12 3e
       0.068690084 -0.027358403 -0.006075486 0.14354487
0003f0 50 45 b8 3d ae 59 b5 3b 36 bf c5 bd 5e 37 8a 3d
       0.08997595 0.0055343723 -0.09655611 0.06748842

16.bias f4 [26]
000000 60 99 11 3e 5e 01 14 3e c8 af 6e bd 76 ad 19 3d
       0.14218664 0.14453647 -0.058273107 0.03751894
000010 8d 36 19 3e 10 ac bd 3d d6 5c 0b be 0f f0 b9 3d
       0.14962216 0.09261334 -0.13609633 0.09078991
000020 e0 d9 c7 3d 88 d1 f1 3d b6 8a a1 3d 58 a8 f2 bc
       0.09758353 0.11807543 0.07887785 -0.029621288
000030 ec c4 e7 3c 84 cd 02 3e 81 d9 b3 3d 6c 55 37 3d
       0.028292142 0.1277371 0.0878172 0.0447592
000040 2a 08 0e bd 4f 5f 0c 3e d8 1e 26 3e 6c d0 7c 3d
       -0.034675755 0.13708232 0.16222703 0.061722204
000050 fc 2e 46 bc b9 c3 dc bc d8 ba e7 bd 78 88 6e bd
       -0.012096163 -0.026948797 -0.113149345 -0.058235615
000060 60 16 f3 bd 77 e3 21 be
       -0.11869502 -0.15809427
